…
    "# one-hot encoding\n",
    "num_classes = 10\n",
    "y_train = np_utils.to_categorical(y_train,num_classes)\n",
    "y_test = np_utils.to_categorical(y_test,num_classes)\n"
   ]
  },
  {
   "cell_type": "code",
   "execution_count": 5,
   "metadata": {},
   "outputs": [
    {
     "name": "stdout",
     "output_type": "stream",
     "text": [
      "_________________________________________________________________\n",
      "Layer (type)                 Output Shape              Param #   \n",
      "=================================================================\n",
      "conv2d_1 (Conv2D)            (None, 32, 32, 32)        896       \n",
      "_________________________________________________________________\n",
      "activation_1 (Activation)    (None, 32, 32, 32)        0         \n",
      "_________________________________________________________________\n",
      "batch_normalization_1 (Batch (None, 32, 32, 32)        128       \n",
      "_________________________________________________________________\n",
      "conv2d_2 (Conv2D)            (None, 32, 32, 32)        9248      \n",
      "_________________________________________________________________\n",
      "activation_2 (Activation)    (None, 32, 32, 32)        0         \n",
      "_________________________________________________________________\n",
      "batch_normalization_2 (Batch (None, 32, 32, 32)        128       \n",
      "_________________________________________________________________\n",
      "max_pooling2d_1 (MaxPooling2 (None, 16, 16, 32)        0         \n",
      "_________________________________________________________________\n",
      "dropout_1 (Dropout)          (None, 16, 16, 32)        0         \n",
      "_________________________________________________________________\n",
      "conv2d_3 (Conv2D)            (None, 16, 16, 64)        18496     \n",
      "_________________________________________________________________\n",
      "activation_3 (Activation)    (None, 16, 16, 64)        0         \n",
      "_________________________________________________________________\n",
      "batch_normalization_3 (Batch (None, 16, 16, 64)        256       \n",
      "_________________________________________________________________\n",
      "conv2d_4 (Conv2D)            (None, 16, 16, 64)        36928     \n",
      "_________________________________________________________________\n",
      "activation_4 (Activation)    (None, 16, 16, 64)        0         \n",
      "_________________________________________________________________\n",
      "batch_normalization_4 (Batch (None, 16, 16, 64)        256       \n",
      "_________________________________________________________________\n",
      "max_pooling2d_2 (MaxPooling2 (None, 8, 8, 64)          0         \n",
      "_________________________________________________________________\n",
      "dropout_2 (Dropout)          (None, 8, 8, 64)          0         \n",
      "_________________________________________________________________\n",
      "conv2d_5 (Conv2D)            (None, 8, 8, 128)         73856     \n",
      "_________________________________________________________________\n",
      "activation_5 (Activation)    (None, 8, 8, 128)         0         \n",
      "_________________________________________________________________\n",
      "batch_normalization_5 (Batch (None, 8, 8, 128)         512       \n",
      "_________________________________________________________________\n",
      "conv2d_6 (Conv2D)            (None, 8, 8, 128)         147584    \n",
      "_________________________________________________________________\n",
      "activation_6 (Activation)    (None, 8, 8, 128)         0         \n",
      "_________________________________________________________________\n",
      "batch_normalization_6 (Batch (None, 8, 8, 128)         512       \n",
      "_________________________________________________________________\n",
      "max_pooling2d_3 (MaxPooling2 (None, 4, 4, 128)         0         \n",
      "_________________________________________________________________\n",
      "dropout_3 (Dropout)          (None, 4, 4, 128)         0         \n",
      "_________________________________________________________________\n",
      "flatten_1 (Flatten)          (None, 2048)              0         \n",
      "_________________________________________________________________\n",
      "dense_1 (Dense)              (None, 10)                20490     \n",
      "=================================================================\n",
      "Total params: 309,290\n",
      "Trainable params: 308,394\n",
      "Non-trainable params: 896\n",
      "_________________________________________________________________\n"
     ]
    }
   ],
   "source": [
    "# build the model\n",
    "\n",
    "baseNeuronsNum = 32\n",
    "weight_decay = 1e-4 # l2 regularization hypeparameter\n",
…
